nohup: ignoring input
running on cuda:0
{'compounds': [661], 'weights': [1.0]}
HetDDI(
  (kg): HGNN(
    (dropout): Dropout(p=0.2, inplace=False)
    (node_embedding): Embedding(98744, 300)
    (gat_layers): ModuleList(
      (0): HetConv(
        (edge_embedding): Embedding(109, 300)
        (bn): Sequential(
          (0): Linear(in_features=300, out_features=300, bias=True)
          (1): BatchNorm1d(300, eps=1e-05, momentum=0.1, affine=True, track_running_stats=True)
        )
        (leaky_relu): LeakyReLU(negative_slope=0.02)
      )
      (1): HetConv(
        (edge_embedding): Embedding(109, 300)
        (bn): Sequential(
          (0): Linear(in_features=300, out_features=300, bias=True)
          (1): BatchNorm1d(300, eps=1e-05, momentum=0.1, affine=True, track_running_stats=True)
        )
        (leaky_relu): LeakyReLU(negative_slope=0.02)
      )
      (2): HetConv(
        (edge_embedding): Embedding(109, 300)
        (bn): Sequential(
          (0): Linear(in_features=300, out_features=300, bias=True)
          (1): BatchNorm1d(300, eps=1e-05, momentum=0.1, affine=True, track_running_stats=True)
        )
        (leaky_relu): LeakyReLU(negative_slope=0.02)
      )
    )
  )
  (kg_fc): Sequential(
    (0): Linear(in_features=300, out_features=300, bias=True)
    (1): BatchNorm1d(300, eps=1e-05, momentum=0.1, affine=True, track_running_stats=True)
    (2): Dropout(p=0.1, inplace=False)
    (3): ReLU()
    (4): Linear(in_features=300, out_features=300, bias=True)
    (5): BatchNorm1d(300, eps=1e-05, momentum=0.1, affine=True, track_running_stats=True)
    (6): Dropout(p=0.1, inplace=False)
    (7): ReLU()
    (8): Linear(in_features=300, out_features=300, bias=True)
    (9): BatchNorm1d(300, eps=1e-05, momentum=0.1, affine=True, track_running_stats=True)
    (10): Dropout(p=0.1, inplace=False)
    (11): ReLU()
  )
  (mol): Mol(
    (readout): AvgPooling()
    (gnn): HGNN(
      (dropout): Dropout(p=0.2, inplace=False)
      (node_embedding): Embedding(47601, 300)
      (gat_layers): ModuleList(
        (0): HetConv(
          (edge_embedding): Embedding(5, 300)
          (bn): Sequential(
            (0): Linear(in_features=300, out_features=300, bias=True)
            (1): BatchNorm1d(300, eps=1e-05, momentum=0.1, affine=True, track_running_stats=True)
          )
          (leaky_relu): LeakyReLU(negative_slope=0.02)
        )
        (1): HetConv(
          (edge_embedding): Embedding(5, 300)
          (bn): Sequential(
            (0): Linear(in_features=300, out_features=300, bias=True)
            (1): BatchNorm1d(300, eps=1e-05, momentum=0.1, affine=True, track_running_stats=True)
          )
          (leaky_relu): LeakyReLU(negative_slope=0.02)
        )
        (2): HetConv(
          (edge_embedding): Embedding(5, 300)
          (bn): Sequential(
            (0): Linear(in_features=300, out_features=300, bias=True)
            (1): BatchNorm1d(300, eps=1e-05, momentum=0.1, affine=True, track_running_stats=True)
          )
          (leaky_relu): LeakyReLU(negative_slope=0.02)
        )
      )
    )
  )
  (mol_fc): Sequential(
    (0): Linear(in_features=300, out_features=300, bias=True)
    (1): BatchNorm1d(300, eps=1e-05, momentum=0.1, affine=True, track_running_stats=True)
    (2): Dropout(p=0.1, inplace=False)
    (3): ReLU()
    (4): Linear(in_features=300, out_features=300, bias=True)
    (5): BatchNorm1d(300, eps=1e-05, momentum=0.1, affine=True, track_running_stats=True)
    (6): Dropout(p=0.1, inplace=False)
    (7): ReLU()
    (8): Linear(in_features=300, out_features=300, bias=True)
    (9): BatchNorm1d(300, eps=1e-05, momentum=0.1, affine=True, track_running_stats=True)
    (10): Dropout(p=0.1, inplace=False)
    (11): ReLU()
  )
  (decoder): Mlp(
    (fc_layer): Sequential(
      (0): Linear(in_features=1200, out_features=1200, bias=True)
      (1): BatchNorm1d(1200, eps=1e-05, momentum=0.1, affine=True, track_running_stats=True)
      (2): ReLU()
      (3): Dropout(p=0.5, inplace=False)
      (4): Linear(in_features=1200, out_features=1200, bias=True)
      (5): BatchNorm1d(1200, eps=1e-05, momentum=0.1, affine=True, track_running_stats=True)
      (6): ReLU()
      (7): Dropout(p=0.5, inplace=False)
      (8): Linear(in_features=1200, out_features=1200, bias=True)
      (9): BatchNorm1d(1200, eps=1e-05, momentum=0.1, affine=True, track_running_stats=True)
      (10): ReLU()
      (11): Dropout(p=0.5, inplace=False)
    )
    (output_layer): Sequential(
      (0): Linear(in_features=1200, out_features=86, bias=False)
    )
  )
)
self.nodes_fc[0]: tensor([ 0.0613, -0.1034], device='cuda:0', grad_fn=<SliceBackward0>)
NaN in self.nodes_fc[0]: tensor(False, device='cuda:0')
Inf in self.nodes_fc[0]: tensor(False, device='cuda:0')
self.nodes_fc.shape: torch.Size([15, 300])
nodes_feat.shape: torch.Size([98743, 300])
self.nodes_attn.shape: torch.Size([1, 300])
nodes_feat device: cuda:0
…
