…
 [00:07<00:01, 463.26it/s] 62%|██████▏   | 935/1498 [00:07<00:00, 591.09it/s] 71%|███████   | 1061/1498 [00:07<00:00, 705.51it/s] 79%|███████▉  | 1186/1498 [00:07<00:00, 812.98it/s] 88%|████████▊ | 1319/1498 [00:07<00:00, 926.89it/s] 97%|█████████▋| 1447/1498 [00:07<00:00, 1005.72it/s]100%|██████████| 1498/1498 [00:07<00:00, 199.20it/s] 
tensor(15, device='cuda:0')
tensor(15, device='cuda:0')
tensor(15, device='cuda:0')
tensor(92, device='cuda:0')
tensor(92, device='cuda:0')
tensor(92, device='cuda:0')
HetDDI(
  (kg): HGNN(
    (dropout): Dropout(p=0.2, inplace=False)
    (node_embedding): Embedding(98744, 300)
    (gat_layers): ModuleList(
      (0): HetConv(
        (edge_embedding): Embedding(109, 300)
        (bn): Sequential(
          (0): Linear(in_features=300, out_features=300, bias=True)
          (1): BatchNorm1d(300, eps=1e-05, momentum=0.1, affine=True, track_running_stats=True)
        )
        (leaky_relu): LeakyReLU(negative_slope=0.02)
      )
      (1): HetConv(
        (edge_embedding): Embedding(109, 300)
        (bn): Sequential(
          (0): Linear(in_features=300, out_features=300, bias=True)
          (1): BatchNorm1d(300, eps=1e-05, momentum=0.1, affine=True, track_running_stats=True)
        )
        (leaky_relu): LeakyReLU(negative_slope=0.02)
      )
      (2): HetConv(
        (edge_embedding): Embedding(109, 300)
        (bn): Sequential(
          (0): Linear(in_features=300, out_features=300, bias=True)
          (1): BatchNorm1d(300, eps=1e-05, momentum=0.1, affine=True, track_running_stats=True)
        )
        (leaky_relu): LeakyReLU(negative_slope=0.02)
      )
    )
  )
  (kg_fc): Sequential(
    (0): Linear(in_features=300, out_features=300, bias=True)
    (1): BatchNorm1d(300, eps=1e-05, momentum=0.1, affine=True, track_running_stats=True)
    (2): Dropout(p=0.1, inplace=False)
    (3): ReLU()
    (4): Linear(in_features=300, out_features=300, bias=True)
    (5): BatchNorm1d(300, eps=1e-05, momentum=0.1, affine=True, track_running_stats=True)
    (6): Dropout(p=0.1, inplace=False)
    (7): ReLU()
    (8): Linear(in_features=300, out_features=300, bias=True)
    (9): BatchNorm1d(300, eps=1e-05, momentum=0.1, affine=True, track_running_stats=True)
    (10): Dropout(p=0.1, inplace=False)
    (11): ReLU()
  )
  (mol): Mol(
    (readout): AvgPooling()
    (gnn): HGNN(
      (dropout): Dropout(p=0.2, inplace=False)
      (node_embedding): Embedding(83998, 300)
      (gat_layers): ModuleList(
        (0): HetConv(
          (edge_embedding): Embedding(5, 300)
          (bn): Sequential(
            (0): Linear(in_features=300, out_features=300, bias=True)
            (1): BatchNorm1d(300, eps=1e-05, momentum=0.1, affine=True, track_running_stats=True)
          )
          (leaky_relu): LeakyReLU(negative_slope=0.02)
        )
        (1): HetConv(
          (edge_embedding): Embedding(5, 300)
          (bn): Sequential(
            (0): Linear(in_features=300, out_features=300, bias=True)
            (1): BatchNorm1d(300, eps=1e-05, momentum=0.1, affine=True, track_running_stats=True)
          )
          (leaky_relu): LeakyReLU(negative_slope=0.02)
        )
        (2): HetConv(
          (edge_embedding): Embedding(5, 300)
          (bn): Sequential(
            (0): Linear(in_features=300, out_features=300, bias=True)
            (1): BatchNorm1d(300, eps=1e-05, momentum=0.1, affine=True, track_running_stats=True)
          )
          (leaky_relu): LeakyReLU(negative_slope=0.02)
        )
      )
    )
  )
  (mol_fc): Sequential(
    (0): Linear(in_features=300, out_features=300, bias=True)
    (1): BatchNorm1d(300, eps=1e-05, momentum=0.1, affine=True, track_running_stats=True)
    (2): Dropout(p=0.1, inplace=False)
    (3): ReLU()
    (4): Linear(in_features=300, out_features=300, bias=True)
    (5): BatchNorm1d(300, eps=1e-05, momentum=0.1, affine=True, track_running_stats=True)
    (6): Dropout(p=0.1, inplace=False)
    (7): ReLU()
    (8): Linear(in_features=300, out_features=300, bias=True)
    (9): BatchNorm1d(300, eps=1e-05, momentum=0.1, affine=True, track_running_stats=True)
    (10): Dropout(p=0.1, inplace=False)
    (11): ReLU()
  )
  (decoder): Mlp(
    (fc_layer): Sequential(
      (0): Linear(in_features=1200, out_features=1200, bias=True)
      (1): BatchNorm1d(1200, eps=1e-05, momentum=0.1, affine=True, track_running_stats=True)
      (2): ReLU()
      (3): Dropout(p=0.5, inplace=False)
      (4): Linear(in_features=1200, out_features=1200, bias=True)
      (5): BatchNorm1d(1200, eps=1e-05, momentum=0.1, affine=True, track_running_stats=True)
      (6): ReLU()
      (7): Dropout(p=0.5, inplace=False)
      (8): Linear(in_features=1200, out_features=1200, bias=True)
      (9): BatchNorm1d(1200, eps=1e-05, momentum=0.1, affine=True, track_running_stats=True)
      (10): ReLU()
      (11): Dropout(p=0.5, inplace=False)
    )
    (output_layer): Sequential(
      (0): Linear(in_features=1200, out_features=86, bias=False)
    )
  )
)
../aten/src/ATen/native/cuda/IndexKernel.cu:92: operator(): block: [201,0,0], thread: [32,0,0] Assertion `index >= -sizes[i] && index < sizes[i] && "index out of bounds"` failed.
../aten/src/ATen/native/cuda/IndexKernel.cu:92: operator(): block: [201,0,0], thread: [33,0,0] Assertion `index >= -sizes[i] && index < sizes[i] && "index out of bounds"` failed.
…
